…
tionInfo":{"status":"ok","timestamp":1689280096313,"user_tz":240,"elapsed":1069284,"user":{"displayName":"Zhengxi Shen","userId":"10593288712576885860"}},"colab":{"base_uri":"https://localhost:8080/"},"outputId":"62e74059-e756-46bf-cdc5-6b25261299f7"},"execution_count":null,"outputs":[{"output_type":"stream","name":"stdout","text":["Model: \"sequential\"\n","_________________________________________________________________\n"," Layer (type)                Output Shape              Param #   \n","=================================================================\n"," dense (Dense)               (None, 6)                 42        \n","                                                                 \n"," dropout (Dropout)           (None, 6)                 0         \n","                                                                 \n"," dense_1 (Dense)             (None, 6)                 42        \n","                                                                 \n"," dropout_1 (Dropout)         (None, 6)                 0         \n","                                                                 \n"," dense_2 (Dense)             (None, 3)                 21        \n","                                                                 \n"," dropout_2 (Dropout)         (None, 3)                 0         \n","                                                                 \n"," dense_3 (Dense)             (None, 3)                 12        \n","                                                                 \n"," dropout_3 (Dropout)         (None, 3)                 0         \n","                                                                 \n"," dense_4 (Dense)             (None, 6)                 24        \n","                                                                 \n","=================================================================\n","Total params: 141\n","Trainable params: 141\n","Non-trainable params: 0\n","_________________________________________________________________\n","None\n","Epoch 1/100\n","3669/3669 [==============================] - 26s 6ms/step - loss: 1.1263 - v
…
/localhost:8080/"},"id":"yWY6i3rENNfs","executionInfo":{"status":"ok","timestamp":1689288186418,"user_tz":240,"elapsed":3603943,"user":{"displayName":"Zhengxi Shen","userId":"10593288712576885860"}},"outputId":"66e9dfbd-c294-4d13-9cc7-aa5c1ac2c2fd"},"execution_count":null,"outputs":[{"output_type":"stream","name":"stdout","text":["Model: \"sequential_1\"\n","_________________________________________________________________\n"," Layer (type)                Output Shape              Param #   \n","=================================================================\n"," dense_5 (Dense)             (None, 6)                 42        \n","                                                                 \n"," dropout_4 (Dropout)         (None, 6)                 0         \n","                                                                 \n"," dense_6 (Dense)             (None, 6)                 42        \n","                                                                 \n"," dropout_5 (Dropout)         (None, 6)                 0         \n","                                                                 \n"," dense_7 (Dense)             (None, 2)                 14        \n","                                                                 \n"," dropout_6 (Dropout)         (None, 2)                 0         \n","                                                                 \n"," dense_8 (Dense)             (None, 2)                 6         \n","                                                                 \n"," dropout_7 (Dropout)         (None, 2)                 0         \n","                                                                 \n"," dense_9 (Dense)             (None, 6)                 18        \n","                                                                 \n","=================================================================\n","Total params: 122\n","Trainable params: 122\n","Non-trainable params: 0\n","_________________________________________________________________\n","None\n","Epoch 1/100\n","3669/3669 [==============================] - 14s 2ms/step - loss: 1.1154 - v
…
ms/step - loss: 0.9768 - val_loss: 0.9498\n","Epoch 99/100\n","3669/3669 [==============================] - 11s 3ms/step - loss: 0.9768 - val_loss: 0.9494\n","Epoch 100/100\n","3669/3669 [==============================] - 9s 2ms/step - loss: 0.9762 - val_loss: 0.9503\n","4077/4077 [==============================] - 7s 2ms/step\n","Model: \"sequential_2\"\n","_________________________________________________________________\n"," Layer (type)                Output Shape              Param #   \n","=================================================================\n"," dense_10 (Dense)            (None, 6)                 42        \n","                                                                 \n"," dropout_8 (Dropout)         (None, 6)                 0         \n","                                                                 \n"," dense_11 (Dense)            (None, 6)                 42        \n","                                                                 \n"," dropout_9 (Dropout)         (None, 6)                 0         \n","                                                                 \n"," dense_12 (Dense)            (None, 9)                 63        \n","                                                                 \n"," dropout_10 (Dropout)        (None, 9)                 0         \n","                                                                 \n"," dense_13 (Dense)            (None, 2)                 20        \n","                                                                 \n"," dropout_11 (Dropout)        (None, 2)                 0         \n","                                                                 \n"," dense_14 (Dense)            (None, 9)                 27        \n","                                                                 \n"," dropout_12 (Dropout)        (None, 9)                 0         \n","                                                                 \n"," dense_15 (Dense)            (None, 6)                 60        \n","                                                                 \n","=================================================================\n","Total params: 254\n","Trainable params: 254\n","Non-trainable params: 0\n","_________________________________________________________________\n","None\n","Epoch 1/100\n","3669/3669 [==============================] - 14s 3ms/step - loss: 1.1151 - v
…
s/step - loss: 1.0010 - val_loss: 0.9912\n","Epoch 99/100\n","3669/3669 [==============================] - 12s 3ms/step - loss: 1.0010 - val_loss: 0.9912\n","Epoch 100/100\n","3669/3669 [==============================] - 10s 3ms/step - loss: 1.0010 - val_loss: 0.9912\n","4077/4077 [==============================] - 8s 2ms/step\n","Model: \"sequential_3\"\n","_________________________________________________________________\n"," Layer (type)                Output Shape              Param #   \n","=================================================================\n"," dense_16 (Dense)            (None, 6)                 42        \n","                                                                 \n"," dropout_13 (Dropout)        (None, 6)                 0         \n","                                                                 \n"," dense_17 (Dense)            (None, 6)                 42        \n","                                                                 \n"," dropout_14 (Dropout)        (None, 6)                 0         \n","                                                                 \n"," dense_18 (Dense)            (None, 12)                84        \n","                                                                 \n"," dropout_15 (Dropout)        (None, 12)                0         \n","                                                                 \n"," dense_19 (Dense)            (None, 8)                 104       \n","                                                                 \n"," dropout_16 (Dropout)        (None, 8)                 0         \n","                                                                 \n"," dense_20 (Dense)            (None, 2)                 18        \n","                                                                 \n"," dropout_17 (Dropout)        (None, 2)                 0         \n","                                                                 \n"," dense_21 (Dense)            (None, 8)                 24        \n","                                                                 \n"," dropout_18 (Dropout)        (None, 8)                 0         \n","                                                                 \n"," dense_22 (Dense)            (None, 12)                108       \n","                                                                 \n"," dropout_19 (Dropout)        (None, 12)                0         \n","                                                                 \n"," dense_23 (Dense)            (None, 6)                 78        \n","                                                                 \n","=================================================================\n","Total params: 500\n","Trainable params: 500\n","Non-trainable params: 0\n","_________________________________________________________________\n","None\n","Epoch 1/100\n","3669/3669 [==============================] - 15s 4ms/step - loss: 1.1508 - v
…
